assets/grammy_winner_predictor.tflite (tflite, 12056 bytes, 5 tensors)

arith.constant f4 [1, 32]
000000 94 e5 bf be c4 93 09 3e ef e8 b6 bd 62 fb 5a 3c
       -0.37479842 0.13435274 -0.08931147 0.013365598
000010 73 e3 a8 3d 6a de 35 bd e0 43 c3 3e e0 65 ae 3e
       0.082465075 -0.044401564 0.38137722 0.340621
000020 da 57 51 be 09 d9 fc bd 48 df 78 be 68 72 2e 3e
       -0.20443669 -0.12346084 -0.24303925 0.1703583
000030 9f b3 97 be 80 3d d8 3e 5b d8 2e bd 0a 00 b7 3e
       -0.29629228 0.4223442 -0.0426868 0.35742217
000040 e1 ba a5 be 07 be 7c 3e 0b 88 a7 3e 02 33 d4 be
       -0.3236914 0.24681865 0.3272098 -0.41445166
000050 ef c5 73 3e e0 2e d9 be 23 b9 b8 be 16 8c da be
       0.23805974 -0.42418575 -0.36078748 -0.42685002
000060 2b 07 9c be ea 7f 08 3d 1c b2 69 bd ab fb a1 3e
       -0.3047422 0.033325113 -0.057054624 0.3163732
000070 df 78 6e 3d 1f 4c ec bd 59 16 12 be 80 73 8d be
       0.05822074 -0.115379564 -0.14266337 -0.27627182

arith.constant1 f4 [32, 64]
000000 33 f4 14 3e d0 3a 3a be 76 2c 38 3e 3a 0b cd bd
       0.1454628 -0.18186498 0.1798571 -0.10011907
000010 30 24 15 3d 72 77 3b be 2c da 8b 3d 94 30 69 3e
       0.036411464 -0.18307284 0.06828722 0.22772437
000020 ab 0b 1d be e0 c8 71 3e bc fa 20 3e 12 ea 44 be
       -0.15336482 0.23611784 0.15720648 -0.19229916
000030 f7 70 47 be c5 21 88 3d 58 be d0 3d 8d b5 29 be
       -0.19476686 0.06647066 0.10192555 -0.16573162
000040 f6 58 00 be 1d a5 a2 3d 7f 9d de 3d e2 6a 43 3e
       -0.12533936 0.07941649 0.10869884 0.19083741
000050 2b 49 84 be b4 ca d8 bd 18 5a 12 be d6 c6 6a be
       -0.25837073 -0.105855376 -0.1429218 -0.22927412
000060 fc cf 73 bc 24 36 b8 3d c5 57 a8 3d 92 a8 89 3d
       -0.01488113 0.089947015 0.08219866 0.06721605
000070 30 7d 21 3e f1 de 3c bb 33 4e 49 be 39 c0 a5 bd
       0.15770411 -0.0028819407 -0.19658737 -0.08093304
000080 53 bd cf bd a6 99 4b 3e 6b da 72 be 93 a5 1e be
       -0.101435326 0.19882831 -0.23716132 -0.15492849
000090 a3 d5 b5 bd ac 01 e8 3d 1f 03 4f be 70 13 32 3e
       -0.088786386 0.11328444 -0.20216034 0.17390227
0000a0 0c cc 3f bd eb 7a 63 be 54 66 03 3e 80 85 f3 3c
       -0.046825454 -0.22214858 0.12832004 0.029726744
0000b0 04 53 b1 bd c8 aa 6d bd b0 5b 51 3e 48 4c 81 bd
       -0.08658412 -0.058024198 0.20445132 -0.063133776
0000c0 71 4a 63 be 12 72 30 bd e3 02 25 be 98 52 77 3e
       -0.22196366 -0.043077536 -0.16114382 0.24152601
0000d0 08 98 eb 3d e2 ca 18 3e 3b 8c d2 bc 50 04 4b 3e
       0.11503607 0.14921144 -0.025701633 0.19825864
0000e0 14 a5 9b bd 95 9b 10 3e 76 3a 5d 3e 0c d3 9a bd
       -0.075998455 0.1412185 0.21604332 -0.07559785
0000f0 48 cd 87 bd 3d c8 03 3e fd c5 84 bd a8 03 22 3e
       -0.06630951 0.12869354 -0.06483076 0.15821707
000100 48 a6 19 3e 08 e4 8b 3d 0c 4d 28 be cc bb 07 be
       0.15004838 0.06830603 -0.16435641 -0.13255233
000110 a8 12 ef bd 40 f9 2d bd 90 7d 72 bd b4 92 54 3e
       -0.1167348 -0.04247403 -0.059201777 0.20759088
000120 a0 36 c4 bd 18 b3 fa 3d 00 41 80 3c 3c 6b 31 be
       -0.095807314 0.12241191 0.015655994 -0.17326063
000130 20 58 ce 3d 48 4d 48 be 40 8a 23 bc 10 c4 fa 3d
       0.10075402 -0.1956073 -0.009981692 0.12244427
000140 58 39 fe 3d 80 b1 e5 3c a4 ff 12 3e e0 e5 68 3e
       0.12413281 0.02803874 0.14355332 0.2274394
000150 f8 1f 4c be a4 fc 3a be 70 7e 4e 3d a8 e3 fa 3d
       -0.1993407 -0.18260437 0.05041355 0.12250453
000160 00 25 82 3c e0 a3 5f bd 90 15 3f be 34 24 1e be
       0.015886784 -0.054599643 -0.18660569 -0.15443498
000170 e0 37 77 3d 90 cd 70 be 54 34 7b 3e 4c 9c 23 be
       0.06035602 -0.23515916 0.2453168 -0.15977591
000180 70 4c 4b be 88 7a 91 bd 30 0d 38 be 54 fd 1f be
       -0.19853377 -0.07103449 -0.1797378 -0.15623981
000190 d8 10 84 bd a0 e3 16 bd 30 6e 26 be 98 79 0f be
       -0.06448525 -0.036838174 -0.1625297 -0.14011228
0001a0 e0 44 33 be ec ec 40 3e b0 cf b8 bd f0 b0 7c 3e
       -0.17506742 0.18840379 -0.09023988 0.24676871
0001b0 58 7f aa bd 80 ce b8 3b b0 a1 4d bd 90 e5 7b be
       -0.0832507 0.005639851 -0.050203025 -0.2459929
0001c0 00 93 2c 3d 9c 2a 6d be f0 54 30 be 7c 2d 0b be
       0.042132378 -0.23160785 -0.17219901 -0.1359157
0001d0 00 93 31 bb 80 a3 24 3d 48 c6 56 3e f8 a3 be bd
       -0.0027095675 0.04019499 0.20974076 -0.09308618
0001e0 b0 7f d7 bd d0 77 1b 3d 74 52 48 be 00 d9 02 bd
       -0.10522401 0.03795606 -0.19562703 -0.03194523
0001f0 a8 e2 e8 bd 5c 49 42 3e 60 03 63 3e c8 e6 07 3e
       -0.11371356 0.18973297 0.22169256 0.1327163
000200 2f 94 6b 3c 28 5f b0 bd 9c 23 30 3e 9d 81 59 3d
       0.014378591 -0.086118996 0.17201084 0.053102124
000210 e5 e7 2a 3e 40 52 c2 3d 39 a0 32 be d3 0b 6a be
       0.16690023 0.09488344 -0.17443933 -0.22856073
000220 53 e4 80 3d 30 b1 f7 bd a8 fb 46 3e 98 83 2d bd
       0.062935494 -0.12094343 0.19431937 -0.042361826
000230 35 e8 1a 3e 78 25 42 bd 10 da 64 3e 19 a1 22 be
       0.15127642 -0.047399014 0.22348809 -0.15881766
000240 46 22 d6 bc 3f ad 47 be 89 e9 9b bd 90 74 04 3e
       -0.02613939 -0.19499682 -0.07612903 0.1293509
000250 c2 b8 d0 3d b7 d4 bc bc dd b4 04 3e 95 9f 05 3e
       0.1019149 -0.02305065 0.12959619 0.13049157
000260 dc 9f d7 bc 7b 26 1b 3b fc e3 a5 bd 41 6a de 3d
       -0.026321344 0.002367406 -0.08100125 0.1086011
000270 10 2b 22 bb 17 43 3c be d4 3f db bd c1 2f 0d 3e
       -0.0024744906 -0.18384968 -0.107055336 0.13787748
000280 74 67 4b be 70 d5 d9 3c 7b 6e 8b bd 47 f8 34 3c
       -0.19863683 0.026591033 -0.06808182 0.011045522
000290 f4 f9 6b be 9c 16 3d 3a 79 a7 6b 3e e1 f2 ee bd
       -0.23044568 0.0007213147 0.23013104 -0.11667419
0002a0 3e fd 52 3e 4f 28 11 3e 0f 38 2b be 81 95 16 be
       0.20604417 0.14175533 -0.16720603 -0.14705469
0002b0 9a 65 6c 3e 72 e1 5a bc c9 c9 c0 3b 60 93 b5 bc
       0.23085633 -0.013359414 0.0058834297 -0.022165
0002c0 61 e4 05 bc 19 23 c9 3c 95 81 dd 3d c0 26 36 3d
       -0.008172126 0.024552869 0.108157314 0.04447055
0002d0 a4 3d 18 be fe f9 b5 bd 55 bb 24 3e a8 10 9e bd
       -0.14867264 -0.08885573 0.16087086 -0.07718021
0002e0 5c 1d c4 3b ae 91 19 bd fe be 11 3e f1 dc 28 be
       0.005984945 -0.037492447 0.14233014 -0.16490532
0002f0 7e 44 6e 3e 92 d3 f7 3d 91 20 32 be 12 d8 6f 3e
       0.23268315 0.12100901 -0.17395236 0.23422268
000300 93 d3 43 3e bf ed 70 3e 0e 63 1a 3d ce 5a 39 be
       0.19123678 0.23528193 0.037692122 -0.18101045
000310 56 38 7a 3d 9d cc 33 3e 5a 6d 31 3e fe 09 b6 3d
       0.061088882 0.17558523 0.1732687 0.088886246
000320 2a 46 0d bd 9c af 61 3e 61 78 00 3e 71 db 7c be
       -0.03449074 0.22039646 0.12545921 -0.24693085
000330 03 ce 42 be 3e 1b 5a be 90 83 41 be 39 e1 07 be
       -0.190239 -0.21299455 -0.18897843 -0.1326951
000340 ba 4d 6b 3e 18 9c 01 be d8 f0 1f 3e f8 84 14 3c
       0.22978869 -0.12657201 0.15619218 0.009064905
000350 d0 c7 2a be 56 e0 80 bd 3a 43 5a be dc 71 76 3e
       -0.16677785 -0.06292789 -0.21314707 0.24066871
000360 80 cb 02 3e e2 78 1a 3e 17 02 67 3e 77 e2 20 3e
       0.12772942 0.15085176 0.22559391 0.1571139
000370 f0 e9 3d be 46 8b e5 bd d8 bb 20 3e df 3b 78 be
       -0.18546271 -0.11208205 0.15696657 -0.24241589
000380 60 27 50 3e 4b c2 2b 3e cb c3 85 3e 16 32 9b bd
       0.2032752 0.16773336 0.2612594 -0.075779125
000390 dc 6b 19 be f1 e7 9e 3c fb c5 df bd af 1a 69 be
       -0.14982551 0.019397708 -0.10926434 -0.22764085
0003a0 6a f2 51 be 49 6e 50 be 5e e6 1e 3d a0 97 c2 3d
       -0.2050263 -0.2035457 0.038793914 0.095015764
0003b0 23 96 e2 bc ae dc fd 3c 24 d3 68 bd 50 67 ea 3d
       -0.027659481 0.030989017 -0.056841984 0.114454865
0003c0 8b f9 86 3b 3a 68 50 3e ca e2 88 3d 60 22 9e bd
       0.0041191033 0.2035226 0.066838816 -0.077214
0003d0 28 52 d7 bd cf f2 c4 3c 84 3b 0d be bc c6 e7 bc
       -0.10513717 0.024041561 -0.13792235 -0.028293006
0003e0 ef 5c f2 bd b6 2e 5b bd 9e ba 44 bd 07 df 70 3e
       -0.11834132 -0.053511344 -0.048029535 0.23522578
0003f0 1e bd b0 3c 12 20 50 bd 4b 3a 2c 3e e0 96 25 be
       0.021574553 -0.050811835 0.16819112 -0.16170835

sequential_1/dense_1_2/BiasAdd/ReadVariableOp f4 [32]
000000 8f e1 7f bc 00 00 00 00 25 8a 9b 3c 83 86 1b bc
       -0.015617742 0.0 0.01898677 -0.009492519
000010 68 a8 08 3a cd 8f db 38 f1 7b 3c 3c 7e 83 8a bb
       0.0005213083 0.00010469519 0.011504159 -0.004227101
000020 4a b0 a3 bc 7f b2 01 bc 28 76 11 bc 52 f0 a7 bb
       -0.019981522 -0.007916092 -0.008878268 -0.005125084
000030 77 2f ef bb 2f 21 be 3b c4 b9 e8 bb 29 df 05 3c
       -0.0072993594 0.0058022956 -0.007102223 0.008170881
000040 82 3a 1a bc 48 5f 6f 3c 0d 61 f6 bb 56 ab 50 bc
       -0.009413363 0.014610119 -0.0075188936 -0.012736162
000050 49 03 85 3c f1 09 68 bc 16 52 57 ba 68 8b 8c 3c
       0.016236918 -0.0141625265 -0.0008213831 0.017156318
000060 b1 7b 75 3c 1d 99 00 3c 69 e6 88 bb 36 32 4d 3b
       0.014983104 0.007849005 -0.0041778577 0.0031310446
000070 00 17 3e bc f7 33 50 ba fc 21 3d bc 92 54 a0 3b
       -0.011602163 -0.00079423137 -0.011543747 0.004892894

sequential_1/dense_1/BiasAdd/ReadVariableOp f4 [64]
000000 cc ba e2 3a b8 c4 b5 bb 91 21 e2 3a 03 a7 21 3c
       0.0017298101 -0.0055471323 0.0017252435 0.009866479
000010 ab 50 12 3c 9a 23 b1 ba 7b 81 d7 3a 28 55 16 3c
       0.008930366 -0.0013514638 0.0016441786 0.009175576
000020 cb 74 2c 3c 00 00 00 00 7d 7a 08 bc 96 96 f0 3b
       0.0105258925 0.0 -0.008329985 0.00734217
000030 d9 27 8e 3b 12 7b 23 bc 00 00 00 00 f5 8c 83 bc
       0.0043382463 -0.009978073 0.0 -0.016058424
000040 79 61 19 bc bc 49 ef b9 b7 c0 33 3c 20 eb 5d b7
       -0.009361618 -0.0004564057 0.01097124 -1.3227371e-05
000050 ac 2c 8d 3c bc 03 4d 3c 44 6a de 3b 2e 8c de 3b
       0.017233215 0.012513097 0.00678757 0.006791613
000060 fd b4 38 bb d0 c5 6a 3c fd aa 2d 3c 4e 25 37 bb
       -0.002818405 0.014329389 0.010599849 -0.002794582
000070 e9 c7 51 3c 28 ff 84 ba 16 d7 35 3c 05 b7 f6 ba
       0.01280401 -0.0010146843 0.011098644 -0.0018822855
000080 c1 5a 2c bc ee 46 24 bc 18 73 11 3a 09 f8 d6 3b
       -0.010519684 -0.010026677 0.00055484613 0.00656033
000090 b9 0d 91 bc dc d4 f9 bc f8 d8 a9 3a 89 8c 2f 3c
       -0.017706739 -0.030497007 0.0012958338 0.010714659
0000a0 0e 83 92 ba 97 c5 c0 3c a8 63 a6 3b 97 2f 12 bd
       -0.0011177973 0.023531718 0.005077798 -0.035689916
0000b0 3c fc a0 3c 93 3c bd 3b b1 ed 97 bb 00 00 00 00
       0.019651525 0.0057750433 -0.0046364893 0.0
0000c0 4f 66 2b bc 10 3c 5a bb 1c 9c ac 3c 00 00 00 00
       -0.010461404 -0.003329996 0.021070533 0.0
0000d0 00 00 00 00 01 94 24 bc 9c 9e bb 3a f5 ee 22 3d
       0.0 -0.0100450525 0.0014314237 0.03977867
0000e0 15 93 5d bb 81 53 0d bc de 1f d1 3c a7 c1 0f bc
       -0.0033809592 -0.008625866 0.02552789 -0.008774198
0000f0 0f d2 c6 3c 20 d7 87 bb a8 bc b6 3b 66 b4 d0 3c
       0.024270086 -0.004145518 0.005576689 0.025476646

sequential_1/dense_1/MatMul f4 [64, 5]
000000 eb 30 37 be c9 10 3e 3e 36 26 8f 3d f6 96 83 3e
       -0.17889754 0.1856109 0.0698971 0.25701112
000010 29 0a 88 be 51 ac b1 bd 3c 6d 35 3d df eb 87 be
       -0.26570252 -0.08675445 0.044293627 -0.26547143
000020 2c 01 6b be 9f a8 04 be 69 5b 1c 3e aa dd 0d 3d
       -0.22949666 -0.12954949 0.15269245 0.034635223
000030 26 a0 7d 3e b0 60 33 be 96 f4 71 bd 97 6a 3e 3e
       0.24768123 -0.17517352 -0.059071146 0.18595348
000040 72 45 8a 3d a4 ac 9b be ab 0b 60 be 7f 6e 70 3e
       0.06751527 -0.30405152 -0.21879451 0.23479651
000050 aa e5 9b 3d 0a 27 9f be 0a ec 39 3d bd d1 1e 3d
       0.07612164 -0.31084472 0.04539112 0.03877424
000060 f1 a3 20 3c c1 3a 57 3e 74 66 8e 3e 73 00 d0 bd
       0.009804712 0.21018507 0.2781254 -0.10156336
000070 4f d6 f9 bd b1 cc 15 be 90 c8 b5 3d 8e af 4f bd
       -0.12199079 -0.14628865 0.08876145 -0.05070453
000080 82 45 8d 3e ad 7c c2 3d 2c 52 98 bd 45 c0 75 3d
       0.27592093 0.09496436 -0.07437548 0.059997816
000090 64 d6 be bd 9d 48 7d 3e 86 f2 25 3e b2 ff 3d be
       -0.093182355 0.24734731 0.16205797 -0.18554571
0000a0 12 4b 18 3e 85 7e 5c 3e f5 ec e5 3d 57 3f 8a be
       0.14872387 0.21532638 0.112268366 -0.2700145
0000b0 f6 f4 4e be e8 84 3e 3d 00 96 0c 3b fb e3 7a be
       -0.20210633 0.046513468 0.0021451712 -0.2450103
0000c0 4e 4f 63 be 40 80 4c be fc 9c 2b 3e d0 92 34 be
       -0.22198221 -0.19970798 0.16759104 -0.1763413
0000d0 6d b0 d9 bd 8a 7d 82 bd 3d e1 b8 bc 93 c6 29 be
       -0.10629354 -0.06371601 -0.02256834 -0.16579656
0000e0 3e 7a 28 3d 8d 65 82 3e b3 d6 1f 3d 46 71 48 3e
       0.041132204 0.25468102 0.039023113 0.1957446
0000f0 63 ef 12 3e ef f1 63 3e ad aa 82 be 54 3a 83 3e
       0.14349131 0.22260259 -0.2552084 0.25630438
000100 e4 0a 6d 3d 10 de f0 3d d7 48 bf bb bb a6 6d 3e
       0.057871714 0.11761105 -0.0058375406 0.23208134
000110 e7 99 bd 3d 4a 1f 3f be 36 02 d9 bd ac 1b 40 be
       0.0925787 -0.1866428 -0.10596125 -0.18760556
000120 37 05 71 be 9e ae 3f be d6 25 25 be 3a 80 75 3d
       -0.23537146 -0.18718955 -0.16127715 0.05993674
000130 f7 5a 73 bd 03 b1 4c 3e e5 3d 43 3e 1b 33 9d be
       -0.059412923 0.199894 0.1906658 -0.30703053
000140 6e db 0b bd a6 c8 14 3e 2c 43 2b 3e 96 bc c0 3d
       -0.03414481 0.14529666 0.16724843 0.0941097
000150 59 5d 42 3e 34 c5 cf bd 1c c3 f8 3d 47 f2 f6 3d
       0.18980922 -0.101450354 0.12146589 0.120579295
000160 21 cd 16 3d d8 9c 25 be c9 97 16 3e 3e c8 4d 3e
       0.03681672 -0.16173112 0.14706339 0.20095918
000170 0e 74 ef 3d bf 0f 74 be 4f 70 45 be b5 7c 9d 3c
       0.116920575 -0.23834132 -0.19281124 0.019224504
000180 1e 91 b4 3d 78 dd 07 3e 2d da 0d be f2 96 43 be
       0.088167414 0.13268077 -0.13852759 -0.1910055
000190 8c d8 bf 3d af 71 7e be be 69 47 3d e5 9e b3 bd
       0.09367475 -0.24848054 0.048684828 -0.08770541
0001a0 29 20 6b 3e b0 61 02 3e 2d 1f 8a 3e ef 64 71 bd
       0.22961487 0.12732577 0.2697691 -0.05893415
0001b0 59 e6 ac 3d 8c 0e 4f be a2 74 1d be 07 94 7d be
       0.08442373 -0.20220393 -0.15376523 -0.24763499
0001c0 29 1e 06 3e 58 19 f1 3d f8 60 5e 3d dc be 51 3d
       0.13097443 0.11772412 0.054291695 0.05120741
0001d0 ac 77 cf bd 05 d1 d0 bd 60 b3 31 3e 85 35 d8 3d
       -0.101302475 -0.10196117 0.17353582 0.10557083
0001e0 3e b1 2f be 99 6a 80 be 66 4f 1c 3e c1 26 1d be
       -0.17157456 -0.25081328 0.15264663 -0.15346815
0001f0 1f d9 31 bd 06 86 52 be 8f ca f2 3c 30 85 26 be
       -0.043419953 -0.20558938 0.029637603 -0.16261744
000200 b7 c1 92 3e 38 3d 02 be 8c aa 31 be 28 37 5c 3e
       0.28663418 -0.12718666 -0.17350215 0.21505415
000210 b7 74 98 3c bd aa 60 3e ff 16 94 3d ed ff 72 bd
       0.018610341 0.21940131 0.07230949 -0.0593261
000220 c1 77 0a be 3d 3d f7 3c 62 a0 51 3e d1 98 3d bc
       -0.13522245 0.030180568 0.20471337 -0.011572079
000230 4a 3e bc 3c db c4 f1 3d 99 b4 6a be e8 56 dc bd
       0.02297892 0.11805125 -0.22920455 -0.107587636
000240 9a 36 ce 3c 9e 5a fa bd 12 70 5f 3e 0b 3c 3c 3e
       0.02517252 -0.12224315 0.21820095 0.1838228
000250 44 38 6b 3e c1 e3 9a 3e cc 19 f4 3d ac cf bf 3d
       0.22970682 0.30251887 0.11918983 0.09365782
000260 8d 7e 04 bd c9 a2 3c be de 01 8a be 44 6b 20 3d
       -0.03234725 -0.18421473 -0.2695455 0.039164796
000270 0a b9 7c 3e e4 ff 6f be 23 79 80 3e 62 ee 74 3e
       0.24679962 -0.23437458 0.2509242 0.23919061
000280 9a 7f 6f 3e d5 cc 79 3d 15 ab bd bd ef 2b 6f 3e
       0.2338852 0.06098636 -0.09261147 0.23356603
000290 71 db c4 bd 55 04 45 be ef 35 9f bd b5 75 80 3e
       -0.096121676 -0.19239934 -0.07773959 0.25089803
0002a0 22 f2 12 3e a1 d7 3a be 27 12 30 bd 09 f7 54 3e
       0.14350179 -0.18246318 -0.04298606 0.20797361
0002b0 a0 d2 80 3d 34 eb 97 be 90 d9 20 be 30 76 29 be
       0.062901735 -0.29671633 -0.15707994 -0.16548991
0002c0 7d de 82 3d de 4e 33 3e b8 06 4d 3e 95 df 3e be
       0.063900925 0.17510554 0.20022094 -0.18639977
0002d0 64 1d 81 be f3 83 45 be 56 00 56 3e ba 89 c4 bd
       -0.25217736 -0.19288616 0.20898566 -0.09596582
0002e0 13 c9 03 3e 14 c3 4a 3d 09 fa 18 be 51 e9 11 3c
       0.12869672 0.049502447 -0.14939131 0.008905725
0002f0 8b 5e 95 3d 83 b0 3d be c7 6b cf 3d d2 0c 1a be
       0.07293423 -0.18524365 0.10127979 -0.15043953
000300 f3 98 a5 bd 9f 8c 88 be c8 43 3b 3e ff 6b 72 be
       -0.080858134 -0.26669785 0.18287575 -0.2367401
000310 21 40 19 3d 97 23 2b be 8f 55 97 3e 4b c4 33 3d
       0.037414674 -0.16712795 0.29557464 0.04388837
000320 b9 fa 85 3e c2 9e 7d 3e c1 7d 4d 3e f2 d3 99 bd
       0.2616785 0.24767593 0.20067503 -0.075111285
000330 33 2a 7b bd 0e 6d b0 3d a1 f0 9b 3d 97 1d 83 be
       -0.06131954 0.086145505 0.07614256 -0.25608513
000340 6c 33 0d bb 92 4b 91 3d 77 2c 2c 3c de 5a d1 3d
       -0.0021545542 0.07094492 0.010508648 0.1022241
000350 c4 3d a5 bd f4 6a 23 3e 52 bc fb bc 23 c3 00 3e
       -0.080684215 0.15958768 -0.030729447 0.12574439
000360 06 aa 70 be 53 ed 99 be 3f ed 6e 3e 8d 78 92 be
       -0.23502359 -0.30063877 0.2333269 -0.28607598
000370 c4 ed 53 3d b4 e1 8c be 19 ff 9d 3d 30 68 8d be
       0.051740423 -0.27515948 0.07714672 -0.2761855
000380 0d d7 eb 3d 31 c4 e1 bc d2 32 d1 3d 3c 5d 95 3e
       0.11515627 -0.027559372 0.10214771 0.29172695
000390 99 a4 ce 3c bc f2 8d be cc 1a cd 3b ac f4 03 3e
       0.02522497 -0.27724254 0.006259298 0.12886304
0003a0 26 d9 35 3e 72 5e 7d 3e 92 9a 39 3e 60 78 5f bc
       0.17758617 0.2474306 0.1812537 -0.0136395395
0003b0 4e 4e 63 be 50 4e 03 be 98 46 0c be 89 d2 8c be
       -0.2219784 -0.12822843 -0.13698804 -0.27504376
0003c0 9e 77 2b 3d 2f ba 1c be 58 cf 71 3d 30 94 38 bd
       0.041862123 -0.15305398 0.05903563 -0.045063198
0003d0 b9 ff 4b be 78 7f 1c 3e e6 02 89 3e ea d5 98 3d
       -0.19921769 0.15283 0.26760024 0.07462676
0003e0 dd 3d 98 be 36 9c 0c 3e 56 e5 81 3d 26 4e 64 3e
       -0.29734698 0.13731465 0.063425705 0.22295436
0003f0 19 e5 e6 bd 01 1e da bd 56 f8 4d 3e 5a 27 c0 bd
       -0.11274166 -0.10650254 0.20114264 -0.09382506
